Backend_work/Medicine_AI/Home/data.pth (torch, 7647 bytes, 6 tensors)

l1.weight f4 [8, 95]
-0.011162573 0.3300437 0.6900256 -0.0783413 0.49373972 1.0687296 0.54141855 0.77038485
0.4145041 0.5089135 -0.6495898 1.0492145 0.25342837 0.19246686 0.938579 0.12584016
0.12736481 0.288689 -0.1017312 -0.32390523 -0.21278107 -0.35270646 0.469606 0.32987374
0.79364157 0.019673143 0.44903517 0.40500468 0.052287005 -0.3258939 0.9908135 0.16748245
0.8168662 -0.01528122 -0.4569008 -1.1515219 0.49953297 0.067146935 -0.4756752 -0.17248671
0.60175747 0.06843267 0.56456083 0.17005064 -0.4112116 0.7569959 0.93826085 0.4476923
-0.004793906 -0.3074604 0.59500426 0.32432616 -0.059163414 -0.104030974 0.15800877 0.95459837
0.3669715 0.46212515 1.0052102 0.7191623 -0.19715494 0.46472144 0.5152289 0.0755947
0.08309252 1.0235419 0.115573905 -0.47518972 -0.110355474 0.10197878 -0.1637716 0.9318937
0.20903276 0.051059444 0.20910807 0.01974286 0.17254989 -0.15674743 -0.1006148 -0.07278867
0.8454932 -0.17639443 -0.26824084 -0.33401436 0.2702567 0.51578724 0.84098583 0.15571271
1.0872326 0.69274473 -0.47449324 -0.44347605 0.34537488 0.6447061 0.49012047 -0.23197079
-0.07311374 -0.39250264 0.5368582 0.5255714 -0.6790662 0.30725268 0.70501244 0.5664661
-0.49351475 -0.57342017 0.5800486 -0.3633154 -0.7457858 -0.7364127 -0.19043832 -0.8838117
-0.2237999 0.32309365 -0.15273358 -0.40336433 -0.105282106 -0.24910867 0.29504636 0.75203747
-0.010383664 0.19010206 0.25050616 -0.03471639 -0.20048667 -0.6630742 -0.40990132 0.95589215
0.271174 -0.24651633 -1.0266001 -0.23193216 -0.1816173 -0.55175716 -0.39361858 -0.36159214
-0.07860336 -0.34514824 -0.33889782 -0.621812 0.823123 0.84615195 0.53572845 -0.06860125
0.51289976 0.15913416 0.65302503 -0.20903233 0.51966333 0.30038318 1.1549064 1.0125822
0.28817174 0.6537944 0.61520934 -0.14089806 0.15962245 0.4425117 -0.30153126 -0.30616948
-0.011336741 0.30957547 -0.5514317 -0.127707 -0.084242985 0.27546453 -0.034077395 -0.21460377
-0.05312811 0.8396172 -0.6766231 -0.22842976 -0.14066462 -0.3233077 -0.13327992 0.33252877
-0.40459108 -0.17852089 -0.3030119 0.12646815 0.8083532 0.35932165 0.0742402 1.0949144
0.98440325 -0.12431831 -0.16009398 0.41725904 0.2895535 0.50992376 0.1499454 0.18890324
-0.009973176 0.17507724 0.35354096 0.8999707 0.38303414 0.40215892 0.30302495 -0.67528653
0.7123263 0.11720797 0.14563291 0.08918104 0.8330986 0.98159 -0.17229769 -0.14945838
-0.6523788 -0.4697468 -0.32237133 -0.46709478 -0.36786357 0.06012125 0.38661492 0.5000665
0.11136096 0.25417113 0.3726527 -0.48603806 -0.0057465695 0.10430968 0.22343332 0.4913058
-0.16507387 1.4114642 -0.33582658 0.9011591 1.28557 -0.339544 -0.71985984 0.20612411
-0.71968037 0.04540669 -0.70232534 0.27246982 0.5092056 0.4430586 0.5762905 0.5438601
-0.19056478 0.5882027 0.605249 0.38198134 0.44644195 0.29216725 1.1358048 0.16479684
0.4288023 0.04952389 -0.08012939 0.17657572 0.4742526 0.114767514 -0.0032607885 1.1882038
00000000: 39e3 36bc 7dfb a83e 85a5 303f 6771 a0bd
00000010: 74cb fc3e 22cc 883f 689a 0a3f f137 453f
00000020: e239 d43e 2848 023f 844b 26bf a94c 863f
00000030: 5dc1 813e 0816 453e b746 703f 3edc 003e
00000040: ec6b 023e 0bcf 933e 7358 d0bd e8d6 a5be
00000050: 48e3 59be f195 b4be 3370 f03e 36e5 a83e
00000060: 182c 4b3f 9229 a13c f0e7 e53e c65c cf3e
00000070: e62a 563d 91db a6be f4a5 7d3f 8580 2b3e
00000080: 251e 513f 155e 7abc e7ee e9be 1265 93bf
00000090: c9c2 ff3e 5584 893d b38b f3be 5ba0 30be
000000a0: c70c 1a3f 6d26 8c3d 0f87 103f c121 2e3e
000000b0: 548a d2be 7cca 413f dd31 703f ed37 e53e
000000c0: 3316 9dbb 736b 9dbe 3352 183f 140e a63e
000000d0: 5655 72bd 310e d5bd 0dcd 213e 8f60 743f
000000e0: b0e3 bb3e ab9b ec3e baaa 803f 051b 383f
000000f0: fce2 49be f8ef ed3e 0be6 033f 65d1 9a3d
00000100: 692c aa3d 6c03 833f 03b2 ec3d 114c f3be
00000110: 0d02 e2bd 40da d03d beb3 27be 9690 6e3f
00000120: af0c 563e b523 513d 6d20 563e c7bb a13c
00000130: ebb0 303e 6682 20be 220f cebd 3a12 95bd
00000140: 3e72 583f bea0 34be dd56 89be ee03 abbe
00000150: 165f 8a3e a20a 043f d94a 573f 2773 1f3e
00000160: 702a 8b3f b857 313f c7f0 f2be 4b0f e3be
00000170: fad4 b03e 750b 253f 12f1 fa3e c089 6dbe
00000180: a8bc 95bd 1bf6 c8be 8a6f 093f d98b 063f
00000190: 48d7 2dbf 3950 9d3e b27b 343f ec03 113f
000001a0: f7ad fcbe aacb 12bf 117e 143f 7a04 babe
000001b0: d1eb 3ebf 8b85 3cbf 4302 43be 7c41 62bf
000001c0: cd2b 65be 886c a53e 3166 1cbe c585 cebe
000001d0: 259e d7bd 5816 7fbe 5110 973e 8785 403f
000001e0: 3e20 2abc 1daa 423e 5842 803e c632 0ebd
000001f0: 614c 4dbe 3bbf 29bf 96de d1be 59b5 743f
00000200: 52d7 8a3e c76e 7cbe a267 83bf a07f 6dbe
00000210: e3f9 39be f53f 0dbf 6088 c9be 9b22 b9be
00000220: ccfa a0bd 45b7 b0be 0484 adbe 122f 1fbf
00000230: 30b8 523f 6a9d 583f 8025 093f d07e 8cbd
00000240: 664d 033f 11f4 223e a62c 273f 920c 56be
00000250: a808 053f d3cb 993e f9d3 933f 4b9c 813f
00000260: 3f8b 933e 125f 273f 5c7e 1d3f 9547 10be
00000270: 1174 233e e590 e23e 4e62 9abe 3fc2 9cbe
00000280: bdbd 39bc ad80 9e3e a12a 0dbf a0c5 02be
00000290: 9687 acbd b009 8d3e bd94 0bbd 17c1 5bbe
000002a0: dc9c 59bd 27f1 563f 2c37 2dbf 7ee9 69be
000002b0: 630a 10be 9688 a5be 887a 08be 3641 aa3e
000002c0: 9026 cfbe 2ece 36be 6024 9bbe de80 013e
000002d0: 3cf0 4e3f 02f9 b73e 3f0b 983d 2826 8c3f
000002e0: da01 7c3f 999a febd adef 23be faa2 d53e
000002f0: 5b40 943e 5d8a 023f 498b 193e da6f 413e
00000300: 8866 23bc 7347 333e 5203 b53e 7b64 663f
00000310: 0d1d c43e c6e7 cd3e 1626 9b3e 94df 2cbf
00000320: 045b 363f bb0a f03d cb20 153e 8da4 b63d
00000330: f345 553f 7b49 7b3f ce6e 30be 9e0b 19be
00000340: 4c02 27bf a782 f0be db0d a5be 0c27 efbe
00000350: 9d58 bcbe b341 763d 64f2 c53e 5c04 003f
00000360: 3711 e43d b822 823e 56cc be3e fbd9 f8be
00000370: b84d bcbb 50a0 d53d b4cb 643e 6f8c fb3e
00000380: 2009 29be dcaa b43f 76f1 abbe 5db2 663f
00000390: 8f8d a43f b6d8 adbe bc48 38bf 3312 533e
000003a0: f93c 38bf 5efc 393d 98cb 33bf 2a81 8b3e
000003b0: 4c5b 023f 94d8 e23e c687 133f 6a3a 0b3f
000003c0: 6a23 43be 7494 163f 99f1 1a3f 0f93 c33e
000003d0: 0a94 e43e f296 953e 0d62 913f 81c0 283e
000003e0: fa8b db3e 90d9 4a3d e11a a4bd 44d0 343e
000003f0: 3dd1 f23e 3b0b eb3d f4b2 55bb 1017 983f

l1.bias f4 [8]
0.47112778 0.54729295 0.71736425 0.3963377 1.396129 0.6094393 0.8904003 0.94164705
00000000: a937 f13e 641b 0c3f 2fa5 373f c6ec ca3e
00000010: 5bb4 b23f 3704 1c3f 46f1 633f c80f 713f

l2.weight f4 [8, 8]
1.297725 -0.074375905 0.086347856 1.0135679 -1.0914456 0.40610328 0.59720284 1.4339448
-0.06831022 -0.1879965 0.025547856 -0.13782723 0.16114028 -0.063541815 -0.35419586 -0.37528625
0.96699697 0.89618665 1.330714 2.29193 0.13203514 -1.4697381 0.2588952 -0.35675502
1.0961198 0.56072164 0.8933098 1.2989224 -0.815927 0.034166936 0.28761485 1.4826695
1.4675137 1.0191118 -1.3091753 0.26991764 1.5172246 1.4663894 1.6873868 -1.2187337
-1.0173897 -1.399365 1.5420738 1.0597289 1.4473249 -0.8419038 1.0391822 0.7045446
0.2954589 0.018248523 -1.336024 0.3918405 -0.34645328 -0.10772406 1.1001532 0.11054693
0.27256092 1.1782832 1.8727721 -1.4317137 1.6284701 0.6380228 -0.6021507 1.0156773
00000000: da1b a63f 6552 98bd 25d7 b03d 98bc 813f
00000010: 7db4 8bbf c5ec cf3e 49e2 183f 818b b73f
00000020: 3be6 8bbd 2882 40be bd49 d13c 9522 0dbe
00000030: f501 253e 3622 82bd 2959 b5be 8525 c0be
00000040: 1d8d 773f 7d6c 653f d654 aa3f fbae 1240
00000050: 3834 073e 6120 bcbf e98d 843e 98a8 b6be
00000060: a74d 8c3f 748b 0f3f f3af 643f 1743 a63f
00000070: 98e0 50bf a1f2 0b3d 4142 933e 1dc8 bd3f
00000080: 7dd7 bb3f 4172 823f 0e93 a7bf a532 8a3e
00000090: 6a34 c23f a6b2 bb3f 4afc d73f 77ff 9bbf
000000a0: d339 82bf 641e b3bf ad62 c53f 32a5 873f
000000b0: f141 b93f 0287 57bf ec03 853f 095d 343f
000000c0: 6446 973e ed7d 953c d602 abbf 519f c83e
000000d0: 5362 b1be 6f9e dcbd d2d1 8c3f 6e66 e23d
000000e0: 1b8d 8b3e fcd1 963f ffb6 ef3f 6542 b7bf
000000f0: b571 d03f 7655 233f 8c26 1abf b701 823f

l2.bias f4 [8]
0.17493357 -0.10842291 -0.026938908 -0.55643624 0.3896315 0.6176982 0.3407514 0.92416227
00000000: c921 333e d50c debd fcae dcbc 9b72 0ebf
00000010: c87d c73e 7821 1e3f f876 ae3e e695 6c3f

l3.weight f4 [19, 8]
-1.3547592 -0.27783075 0.20927365 -0.06381195 -0.5720665 0.90713406 -2.5016382 -0.3176799
-0.048711807 -0.0028732955 0.697401 0.33054334 -0.09249221 -1.759077 -2.243495 -0.2918274
0.106823385 -0.15613535 -0.041624367 -0.035774533 -0.004987926 0.087537676 -1.4080367 -0.45144215
0.42521185 0.29339352 0.28166932 0.6056146 -1.6903287 0.03087655 0.5737517 -1.5975779
-2.5482833 -0.29090953 -2.1839511 -2.4394026 1.0078938 -2.1233103 -1.8166027 0.5358978
-0.9478486 -0.013702128 -0.65252525 -0.52504945 0.33771458 -2.1001046 -0.4383559 0.7598396
-0.0068052374 -0.30501708 0.49471346 0.47327793 -2.5073633 0.5797256 -2.3765485 -0.37452433
-1.8827301 0.286734 -0.40910628 -0.9051779 -2.44688 1.1342747 -1.2293695 0.61125344
0.44898778 0.16164872 -2.9077504 -0.6110152 0.47436255 -0.25490636 0.78126353 -0.4700392
0.14607984 -0.13877654 -0.08469947 0.508484 -1.8641368 -1.7839363 -1.763989 0.7375778
0.19988818 0.20566803 -2.0978968 0.343707 0.29443857 -2.1649556 -0.3844484 -0.08880172
-1.4979883 -0.3459074 0.67443424 -0.60302085 -0.6269934 -0.7318389 -1.4890237 0.6533974
-1.7974541 -0.20589228 0.4859238 -1.606888 0.19776016 0.75297135 0.13981415 -1.0012045
0.64617485 -0.16734216 0.19811417 0.6918049 -0.82633436 -1.7495935 0.06630276 -0.89650965
-0.0012358739 0.30475566 0.054154534 -0.13221562 -0.10698463 0.17505181 0.68113804 -1.4750469
0.011408975 -0.19333126 0.056762107 -0.15637735 0.39687526 -0.610473 0.36135405 -1.2567254
0.6193828 -0.056504615 -2.7541308 0.68548834 -0.9636518 0.36675668 -2.6611543 0.24369477
-2.356159 0.27808252 -2.045668 -2.5654194 0.86999166 0.027246704 0.6928279 -0.2449343
-1.8561792 -0.08846638 -2.5184073 -1.7491523 0.122371934 0.5662049 -3.911843 0.8016987
00000000: c068 adbf d53f 8ebe d54b 563e d7af 82bd
00000010: f372 12bf f039 683f d71a 20c0 f1a6 a2be
00000020: 0886 47bd e64d 3cbb df88 323f fa3c a93e
00000030: 8e6c bdbd 6f29 e1bf 6c95 0fc0 676a 95be
00000040: 38c6 da3d f2e1 1fbe 507e 2abd 5188 12bd
00000050: c271 a3bb f446 b33d 8c3a b4bf 6d23 e7be
00000060: 5eb5 d93e ad37 963e f636 903e 8f09 1b3f
00000070: b15c d8bf d2f0 fc3c 64e1 123f 6f7d ccbf
00000080: 1317 23c0 18f2 94be dbc5 0bc0 2c1f 1cc0
00000090: aa02 813f 51e4 07c0 7086 e8bf 9930 093f
000000a0: 35a6 72bf e47e 60bc e50b 27bf a469 06bf
000000b0: ede8 ac3e 1d68 06c0 2f70 e0be d984 423f
000000c0: 78fe debb 332b 9cbe 154b fd3e 7c51 f23e
000000d0: a478 20c0 e668 143f 5f19 18c0 a7c1 bfbe
000000e0: 4dfd f0bf cdce 923e 6176 d1be bdb9 67bf
000000f0: af99 1cc0 ea2f 913f fb5b 9dbf 1b7b 1c3f
00000100: bae1 e53e 3e87 253e 9518 3ac0 7e6b 1cbf
00000110: a6df f23e 1683 82be e300 483f faa8 f0be
00000120: f495 153e 701b 0ebe ea76 adbd 022c 023f
00000130: 099c eebf 0658 e4bf 64ca e1bf e6d1 3c3f
00000140: 7daf 4c3e a49a 523e f143 06c0 5dfa af3e
00000150: a7c0 963e a28e 0ac0 6cd6 c4be addd b5bd
00000160: 15be bfbf c61a b1be b9a7 2c3f 935f 1abf
00000170: a482 20bf cb59 3bbf 5498 bebf 0d45 273f
00000180: fa12 e6bf 6dd5 52be 01cb f83e 82ae cdbf
00000190: a481 4a3e bbc2 403f 712b 0f3e 7827 80bf
000001a0: b76b 253f be5b 2bbe 71de 4a3e 201a 313f
000001b0: a68a 53bf aef2 dfbf bec9 873d a881 65bf
000001c0: 0cfd a1ba ef08 9c3e 25d1 5d3d 8863 07be
000001d0: c21a dbbd c840 333e 105f 2e3f 56ce bcbf
000001e0: b6ec 3a3c a1f8 45be 627f 683d 6221 20be
000001f0: 3c33 cb3e f547 1cbf 6603 b93e 61dc a0bf
00000200: df8f 1e3f 6271 67bd ae43 30c0 2a7c 2f3f
00000210: e2b1 76bf 88c7 bb3e 5a50 2ac0 1f8b 793e
00000220: 4fcb 16c0 d560 8e3e 39ec 02c0 d52f 24c0
00000230: c6b7 5e3f 7b34 df3c 2b5d 313f 0fd0 7abe
00000240: 4897 edbf dd2d b5bd 962d 21c0 39e4 dfbf
00000250: 239e fa3d cef2 103f a35b 7ac0 203c 4d3f

l3.bias f4 [19]
-0.22893998 0.022514591 -0.39373767 -0.1126403 0.15932469 -0.2078294 0.3201789 0.49517348
0.69401795 0.10613416 -0.6507653 -0.2934317 0.032151382 -0.43174303 -0.38090423 -0.40647247
0.38883412 -0.010779197 0.45312995
00000000: 3e6f 6abe 8570 b83c fc97 c9be f5af e6bd
00000010: 0326 233e 3bd1 54be 7dee a33e 6187 fd3e
00000020: 29ab 313f de5c d93d 8e98 26bf ae3c 96be
00000030: 2bb1 033d 6c0d ddbe e105 c3be 291d d0be
00000040: 4415 c73e 3b9b 30bc a600 e83e
