Backend_work/Medicine_AI/Home/data.pth (torch, 6495 bytes, 6 tensors)

l1.weight f4 [8, 73]
00000000: 2122 e83e aa55 37bf cbc1 e83d 005c f23e
00000010: 3ea3 1cbf aa83 783f 738e 56be c85d cbbd
00000020: 0436 eebe 8e5b 083f 9a10 08bf 6441 573e
00000030: 64c3 323f 39df 763f e154 063f 1252 e23c
00000040: def3 32bf 58fa 0d3f 448f 5bbe 6067 9abd
00000050: acd6 d83e cbaf 0bbe 03b5 03be 80b7 93be
00000060: cd54 9cbd 5ca8 b3bd 3b29 ea3e b13c d83e
00000070: ac17 2abf ed4f 203f aee8 2d3f 7ea0 4d3f
00000080: 0fa1 a23e 85be 3a3f e8f7 433f 7ac4 0b3f
00000090: 97c0 9d3d ca10 07bf 68e9 853e ecc8 81bd
000000a0: f8c2 2cbe c411 23bf b259 423f 07d8 c33e
000000b0: a21e e43e 33e6 afbe 7101 5fbe d947 e1be
000000c0: 3fe2 e3bd de0f 49bf 0b45 d1be 1c70 bcbd
000000d0: 704a dabd e316 5cbe 6889 843f 4054 d8bc
000000e0: 839e 3d3f 3a5a 1d3d 9111 ee3e 8ebc 76bf
000000f0: fd19 983d 8467 0e3e f473 323f bdb9 cf3e
00000100: 3d27 7d3e d3cd d2be cd59 77be ab6f c0be
00000110: 87cd 0c3f 3293 89bf fc29 1c3f 4898 e1be
00000120: 857e 283e f485 ae3e 851e b03d bc71 2f3f
00000130: 6712 113d 29cb 453e da94 c7bd 02bf 483e
00000140: b56a 76be 1bc8 633e f181 433f 3151 2abf
00000150: 24a5 443f 27b0 30bf f95b 833f c874 923e
00000160: 36fd cabd 778d c2be 5598 023f 5396 fbbe
00000170: 3dd1 cf3d bcee 833f 6f08 953d f182 543e
00000180: 9b0e 853e 68ba c3bd f979 01be 7dbf 623f
00000190: 3f05 fa3b 08a6 61bf b872 1a3f 6aaf 9f3f
000001a0: 6b50 363f 80ad 053f 96ad 453f 62d4 5b3f
000001b0: e1c1 ff3e 8c71 c6be 5621 d6be 93c6 813e
000001c0: 7333 d5bd 54bc ef3e 79ae 1ebf 78f6 393f
000001d0: 5a60 14bc 3ea8 25be 0d5a b0be a582 c83e
000001e0: 588d 29bf 009e 7f3e 5edc 6cbf 529f 863f
000001f0: 61c2 393e 35eb 35bf cf95 fbbe 494d d33d
00000200: 808e 0e3e f9f2 723f 8dc0 043e e878 42be
00000210: 1723 3d3f c9fa cb3d cae3 f13e 4a3e 263f
00000220: 1723 e43e 9f6f 583d 2f43 cd3e 4ce5 683e
00000230: 4611 003f f236 b33f 26a5 08be 668b f83e
00000240: 0d2a 143e 693b 3d3f dd74 8dbe 83da 253f
00000250: 00fc 8a3a 7d62 63bf 4938 cbbd b7da e9bd
00000260: 9f51 773d aac0 023f 6d62 b13d 585a 40be
00000270: d0a1 07be c645 42bf 0890 1e3f 2eb8 893f
00000280: 126a 8f3e b2cd 2d3f d079 db3e ba7e a4be
00000290: 2108 123e cfde 883e 90e8 02bf cb02 3ebd
000002a0: c813 483c a082 03bd 6ec0 1f3d 8d47 133f
000002b0: f6b8 723d f8f5 133f 3315 56bf 7552 61be
000002c0: ef8f 8e3f 1d97 0abf c309 02be 1b88 0abf
000002d0: a7af 0abf 4aaa 473d 32e3 003f 202a be3e
000002e0: dac5 77bd eacd 823f 57cc efbe ac0f be3e
000002f0: bd8d 033f f1b3 1a3f 833c fa3e 8e8c 343f
00000300: 98f6 c9be a944 143e 910c d2bd 7984 5c3f
00000310: 990a f1be d97b e53d d038 30bf 1785 4b3e
00000320: bc67 c7be 3db8 123f d422 183f befa a83e
00000330: bea3 223f 50c4 243e 3c47 843e 542f 993e
00000340: 227c 0abf 5a73 0ebe 6a8d 95be 145d f2be
00000350: 6a4e ac3d 9801 97be 7bff 73bf 4cef b63e
00000360: 84ba 0ebe 78e4 8ebd b701 1fbf d0d6 3a3f
00000370: e900 843d 7d05 58bc 6954 6b3f 5362 c43e
00000380: f09e 6cbf 024f 85be 79be 5b3e e7b5 113f
00000390: 0541 983e 2c91 213f f8a0 abba 97b3 edbb
000003a0: 0701 4fbf 39c2 80be 5957 3f3d 4a52 b7be
000003b0: 79a7 3f3f ced7 b4bd 34a9 ef3e b661 043f
000003c0: e005 163f 4d54 65be 583c 02be 5174 0f3f
000003d0: 4d3b 5dbe d121 82be aabc 31be 3079 9b3f
000003e0: 006d 3f3f 77b3 20bf 95cd 6a3f 7bf4 393f
000003f0: 7fde 673f 34e6 843f deab 073d f3ab a23e
0.45338538 -0.7161509 0.11365088 0.47335815 -0.6118659 0.97075903 -0.20952778 -0.09929997
-0.46525586 0.532647 -0.5315033 0.21021038 0.6982939 0.9643436 0.52473265 0.027627025
-0.6990336 0.5546012 -0.2144137 -0.075392485 0.42351282 -0.13641278 -0.12862019 -0.28850937
-0.07633362 -0.087723464 0.4573458 0.42233804 -0.6644237 0.6262196 0.67933166 0.80323017
0.31763503 0.7294696 0.7655015 0.54596674 0.07702749 -0.52759993 0.26154637 -0.06337151
-0.1687125 -0.63698983 0.75918114 0.38250753 0.4455462 -0.34355316 -0.21777894 -0.44000128
-0.111271374 -0.78539836 -0.40872988 -0.09201071 -0.10658729 -0.21493106 1.0354433 -0.026407361
0.74069995 0.038416125 0.46497777 -0.9638146 0.07426832 0.13906676 0.6970818 0.40571395
0.24722 -0.41172656 -0.2415535 -0.37585196 0.5500111 -1.0748045 0.61001563 -0.44061494
0.16454513 0.34086573 0.08599571 0.6853292 0.03541794 0.1931578 -0.09745188 0.19604114
-0.24064143 0.22244303 0.7637015 -0.6653014 0.76814485 -0.6901879 1.0262443 0.28604722
-0.099115774 -0.37998554 0.5101369 -0.49138126 0.10147331 1.0307231 0.07276999 0.20753075
0.25987706 -0.095570385 -0.12644185 0.8857344 0.00763002 -0.8814397 0.60331297 1.2475407
0.7121646 0.52217865 0.77217996 0.85870945 0.49952605 -0.38758504 -0.41822308 0.25346813
-0.10410204 0.4682337 -0.61984974 0.72641706 -0.009056175 -0.1617746 -0.34443703 0.39162174
-0.662313 0.24962616 -0.92523754 1.0517371 0.18140556 -0.7106202 -0.49137732 0.10317475
0.13921547 0.94901997 0.12964077 -0.18991435 0.7388167 0.09959943 0.47244102 0.64938796
0.4455802 0.052840825 0.4009032 0.2274372 0.5002636 1.4001143 -0.13344249 0.48543853
0.14469166 0.7391878 -0.27628222 0.6478655 0.0010603666 -0.88822156 -0.09922845 -0.1141867
0.060380574 0.5107523 0.08661351 -0.18784463 -0.1324532 -0.75887716 0.61938524 1.0759332
0.28010613 0.6789199 0.42866373 -0.32127935 0.14260913 0.2673249 -0.5113611 -0.046389382
0.0122117475 -0.032106996 0.039001875 0.5753105 0.059258424 0.57797194 -0.836261 -0.22004111
1.1137675 -0.5413683 -0.12699036 -0.5411393 -0.54174274 0.048746385 0.5034667 0.37141514
-0.06049142 1.021909 -0.46835586 0.37121332 0.5138815 0.6043082 0.48874292 0.7052697
-0.3944595 0.14479317 -0.10256303 0.8613964 -0.47078398 0.11205263 -0.6883669 0.19874988
-0.3894633 0.57312375 0.59428144 0.330038 0.635311 0.16090512 0.25835598 0.2991892
-0.5409566 -0.1391119 -0.29209453 -0.47336638 0.08413394 -0.29493403 -0.9531171 0.35729444
-0.13938338 -0.06977171 -0.6211199 0.7298403 0.06445486 -0.013184902 0.91925675 0.38356265
-0.9243002 -0.2603684 0.21459378 0.56918186 0.29737106 0.6311214 -0.0013094237 -0.007254075
-0.8086094 -0.2514818 0.04671416 -0.3580497 0.7486492 -0.08830224 0.4680878 0.51711595
0.58602715 -0.2239544 -0.12718332 0.5603686 -0.21604653 -0.25416425 -0.17357126 1.2146358
0.74775696 -0.6277384 0.91719943 0.7263867 0.9057388 1.0382752 0.03312289 0.31771812

l1.bias f4 [8]
00000000: fffc 5e3f cc08 433f ac24 0a3f dcf1 4e3f
00000010: d0ad 4d3f 6533 193f eb9f 0c3f 758a 283f
0.8710479 0.761853 0.53962207 0.808378 0.8034334 0.59844047 0.54931515 0.6583627

l2.weight f4 [8, 8]
00000000: 51db acbf 6cf4 663e 65b0 b83c 7c4a 78be
00000010: e1b1 293f 5eb2 b23f 4e3f 863f fbc2 bc3f
00000020: b2e4 8a3c 8b30 5f3f ff44 76bf 2d12 ad3f
00000030: a0b3 583f e474 0ebe b771 a3bf 7c82 213e
00000040: f627 943f d5cd 933f 8786 d43f b38a 14bf
00000050: e5fa e83e 4aef d4bf 8fac 24be 9f96 f03f
00000060: 688e 7abd e8f1 68be dc10 9bbd 54b3 7dbe
00000070: dab9 e7bd 6ebe d93d 9f4b 0c3e 88aa 1ebe
00000080: 8fda d43f 118d d83f 909b 22bf 6f77 1a3f
00000090: 8b42 98bf a3be e83f 1799 88be 5428 8b3f
000000a0: 8236 2dbf 851c 89bf 143a bd3f 1558 593f
000000b0: 6a3a 533f 71c1 b6be 5499 cb3f ebb3 0ebf
000000c0: 9a80 bfbe 1689 32be 013a 7dbf 8cb9 a63f
000000d0: c750 bd3f 28c3 253d 5d2e e4be fb99 bb3d
000000e0: 9439 5fbe 61c7 3b3f 420d 2ebf f036 fdbe
000000f0: 0551 0bbf 35d6 cf3e 4d80 333f 9c31 1fbf
-1.350443 0.22554177 0.022545049 -0.24247164 0.66287047 1.3960683 1.0488069 1.4747003
0.016954754 0.87183446 -0.9619903 1.3521172 0.84649086 -0.13911778 -1.2769078 0.15772432
1.1574695 1.154719 1.6603554 -0.5802414 0.45503917 -1.6635525 -0.16081451 1.8795966
-0.061170965 -0.2274853 -0.07571575 -0.2477544 -0.11314745 0.10632025 0.13700722 -0.1549474
1.6629199 1.691805 -0.6351862 0.6033849 -1.1895307 1.8183178 -0.26679298 1.0871682
-0.676613 -1.0711828 1.4783349 0.8490003 0.8251101 -0.3569446 1.5906167 -0.55743283
-0.37402803 -0.17435107 -0.9891663 1.3025374 1.4790276 0.04046932 -0.44566622 0.09160229
-0.21799308 0.73351103 -0.6798898 -0.49455976 -0.544205 0.40593114 0.70117646 -0.6218507

l2.bias f4 [8]
00000000: 2072 8dbe 3553 9e3e 9013 473f 304c 69be
00000010: 4afe 233f 6063 8a3e 9c05 263f 17b6 c63d
-0.27626133 0.30922857 0.77764225 -0.2278297 0.6405989 0.27028942 0.6485231 0.097027

l3.weight f4 [14, 8]
00000000: 64fe 2bbf c4d2 553f c58b bfbf d1aa 8abe
00000010: 7565 89bf bc15 673e 9640 723f 7611 33be
00000020: e042 523e 8ea7 ad3e c4f9 36bf 6ed0 943d
00000030: ff41 283e a336 9abf 15bc c53e 9194 4bbf
00000040: 3b9d a3be ea06 9bbf 1974 40bf 3587 b3be
00000050: d4b4 d9bf 0bb9 953f 7d7b 873e 6528 e8be
00000060: 97d9 3ac0 f7ae edbf 55f8 b63e 1b25 703e
00000070: 7322 473f b3f6 843e f485 dabf e682 4e3f
00000080: ad7d fcbe 37a7 8b3e 9843 2c3f 2353 0a3e
00000090: 7393 d6bf 8c55 84be b6d3 1c3f 8a54 b3be
000000a0: 2694 d7bf 161b 23be 1f7c 773f 50ee a6be
000000b0: 942e 733e 36c5 a7bf d6d3 7abf 1baf e1bf
000000c0: 452e cabf 53f0 ff3e 5de8 c83e c1c1 053d
000000d0: 9d31 e23d 4240 06c0 b00f 043f 38f7 78bf
000000e0: 4c26 98be cf74 90bf 9704 533f 77c2 833d
000000f0: 178e a9bf d54d ff3e 9bce d7bf c00f 66bf
00000100: bdd9 973e 816e 9dbf 40cc 99bf 5ed3 dd3c
00000110: 24dc b83d 4e44 00bf 3a20 9fbf 2cfd 853f
00000120: 99e1 473f 2430 41bf 8ec1 5dbf adc0 2fbe
00000130: bcef 31bf 9acc a5be 1166 f73e 1847 4fbf
00000140: f2c5 4a3f 19af 6ebf b5cd b23b 5b3c e93d
00000150: 766e cdbe ff57 a0be 1026 dcbf 47c3 46bf
00000160: 8b90 f13d b646 a5bf d758 403d b56b a53c
00000170: fca3 e63e 23d4 ddbf 2199 93bf bfc7 bbbf
00000180: a506 9fbd 96a4 bfbd 6267 18be ded3 923e
00000190: 79dd 153f e554 c6bf 13df f3bf 634b 55be
000001a0: b493 04c0 2d3f fd3e f839 a8bf 4714 153e
000001b0: 4244 483f 742c e1bf 6458 a23e 7361 e33d
-0.67185044 0.8352473 -1.4964529 -0.27083448 -1.0734087 0.22566885 0.946298 -0.1748713
0.20533323 0.33916897 -0.7147486 0.07266317 0.16431426 -1.2047924 0.38620058 -0.7952357
-0.31955895 -1.2111485 -0.7517715 -0.35064092 -1.7008309 1.1697096 0.26461402 -0.4534332
-2.9195306 -1.856902 0.35736337 0.23451655 0.7778694 0.25969467 -1.7072129 0.80668485
-0.49314633 0.27276012 0.6729064 0.13508277 -1.6763748 -0.25846517 0.61260545 -0.35025436
-1.6842086 -0.15928301 0.9667377 -0.32603693 0.23748237 -1.3107059 -0.97979486 -1.7631563
-1.579537 0.4998804 0.3923978 0.03265548 0.11044619 -2.097672 0.5158644 -0.97252226
-0.29716718 -1.1285647 0.8242888 0.064335756 -1.3246487 0.4986407 -1.6859926 -0.8986778
0.2965831 -1.2299348 -1.2015457 0.027078327 0.090263635 -0.50104225 -1.243171 1.0467887
0.7807861 -0.7546408 -0.86623466 -0.17163344 -0.6950643 -0.3238266 0.48320058 -0.80967855
0.7920829 -0.9323593 0.005456651 0.11388465 -0.40123338 -0.31317136 -1.7199116 -0.7764172
0.117951475 -1.2912204 0.046959724 0.02019296 0.45046985 -1.7330364 -1.1531106 -1.4670333
-0.07764939 -0.09357564 -0.14883187 0.28677267 0.58541065 -1.5494658 -1.9052452 -0.20829539
-2.071515 0.49462262 -1.3142691 0.14558516 0.78229153 -1.7591691 0.31708062 0.11102571

l3.bias f4 [14]
00000000: fcf2 423e c43c a4bd cd02 713c af37 043f
00000010: e238 c6be 2971 e23d a020 b3bd 7566 413e
00000020: 2b53 e8bc b64d cabd 34e1 a5be d489 053e
00000030: fb7c 51be 89ca e7bd
0.19038004 -0.080194026 0.01471014 0.51647466 -0.38715273 0.1105674 -0.08746457 0.1888674
-0.02835997 -0.098781034 -0.3239838 0.13040859 -0.20457833 -0.113179274
