Backend_work/Medicine_AI/Home/data.pth (torch, 6495 bytes, 6 tensors)

l1.weight f4 [8, 73]
000000 11 10 cd bd 69 77 32 bc f0 9a e7 be 6d 86 09 3e
       -0.1001283 -0.010892727 -0.45235395 0.13430186
000010 66 6a d0 3e 95 f7 50 bf 00 dc e8 b9 9e 1f b2 3e
       0.40706176 -0.8162778 -0.000444144 0.34789747
000020 12 75 db 3e 25 6a 16 3f 09 60 98 be d9 bd 97 3e
       0.42862755 0.58755714 -0.2976077 0.2963703
000030 7a cd c2 be 51 d6 08 bf 6a 2a c4 be 9f 4e 05 bf
       -0.3804739 -0.5345202 -0.3831361 -0.5207309
000040 13 60 54 bf 91 33 1b 3f e7 39 99 be 0e 8b 44 3d
       -0.829591 0.6062556 -0.29926988 0.047984175
000050 45 bc 25 3f 96 cb b9 bd 7b 84 98 bd 20 d4 c7 bd
       0.647404 -0.09072034 -0.07447144 -0.097572565
000060 fb 24 eb 3d 8d d4 16 be 90 1a ef bc a5 60 13 3f
       0.11481663 -0.14729519 -0.02918747 0.5756934
000070 b2 19 81 bf c6 82 df 3e 1c d1 08 bf 85 75 3e 3f
       -1.0085967 0.4365446 -0.53444076 0.7439807
000080 e8 18 a9 3c e0 b9 60 3f 23 a0 5b 3f ee 6b 47 3f
       0.020641759 0.8778362 0.85791224 0.7789906
000090 21 fa f7 3e ca c3 f1 3e 70 d7 ce 3d 81 c1 5d 3f
       0.4843302 0.47219688 0.10099685 0.8662339
0000a0 c8 38 c3 be d0 22 05 3f c1 ff 96 be d8 1b 37 3f
       -0.38129258 0.52006245 -0.29492 0.7152686
0000b0 de 83 3a 3f 8c 78 24 3f 9f 2e a4 3e 87 91 0b bf
       0.72857463 0.6424644 0.3206682 -0.5451893
0000c0 e3 85 e0 3d 1c b9 ea 3e e5 94 a5 bd 89 7e a8 bd
       0.10963037 0.45844352 -0.0808504 -0.0822726
0000d0 51 4b 4c be 31 d2 9e be ed 56 a6 bb 88 81 f7 3e
       -0.19950606 -0.31019738 -0.0050762803 0.48341012
0000e0 35 59 94 be 40 a4 63 be a6 6f 13 3f eb 75 2e bf
       -0.2897431 -0.22230625 0.57592237 -0.6814868
0000f0 22 ba 65 be f4 df a7 3e 57 46 a6 bc 09 36 9e bd
       -0.22434285 0.3278805 -0.020297213 -0.0772515
000100 a8 33 9e 3e 47 1e 71 be 5c e4 b4 bc ca 0d cc be
       0.30898786 -0.23546706 -0.022081546 -0.3985427
000110 9b 28 d2 be fc f4 be 3e 44 f5 4d 3d 47 52 4f bf
       -0.41046605 0.37296283 0.05028273 -0.8098492
000120 49 f0 1e 3f 21 49 c7 3e 7b 73 4a 3f 92 63 00 be
       0.62085396 0.3892298 0.7908246 -0.12537983
000130 01 05 0f bf 1a 5e 94 3e c7 d5 ea 3d b6 5f b1 3e
       -0.5586701 0.28978044 0.11466556 0.34643334
000140 d1 27 f6 3e a7 31 83 3e 89 ae d9 3e 76 bb ab be
       0.48077253 0.2562382 0.42515972 -0.3354146
000150 27 1d a9 3e 56 1e 24 3e f6 39 06 3f 54 9b 23 3e
       0.33030054 0.16027197 0.5243219 0.15977222
000160 d5 e2 5b bf dd ab 7f bf 10 47 41 bd 0d 37 f7 be
       -0.85892993 -0.9987162 -0.04718691 -0.48284188
000170 ef b9 ac 3e b4 2d 2d 3f b8 cb fa bc 06 8d 09 3f
       0.33735606 0.6764786 -0.030614719 0.5373081
000180 18 c7 05 3f 20 3a 75 bb 65 44 ca bd a9 a9 9b 3e
       0.5225692 -0.0037418678 -0.098763265 0.30402878
000190 83 91 ba 3e d6 ab 71 bf e9 ea fe bd a1 34 fb 3e
       0.36439142 -0.94402826 -0.12447149 0.4906359
0001a0 13 6c d6 be ad 98 b2 3e 38 13 bd be 2d 24 e2 be
       -0.4187933 0.34882107 -0.36928725 -0.44168225
0001b0 cb 0c ed be 4a b4 e0 3e 23 fa 0e 3f 71 8b 7a be
       -0.46298823 0.4388755 0.5585043 -0.24467255
0001c0 c3 5a 16 3f 28 62 f6 3e fe 62 81 be f8 bc 88 3e
       0.5873224 0.48121762 -0.25270838 0.26706672
0001d0 fa 06 9e 3e b4 7e c4 3e 55 d6 42 3f b9 92 61 3e
       0.30864698 0.38377917 0.76108295 0.22028627
0001e0 ec ee ea be 92 d6 0c 3f 2f 5e 56 3f 8a e1 a0 3f
       -0.45885408 0.5501491 0.8373746 1.2568829
0001f0 a9 34 02 3f ec ca 04 bf b2 30 f7 be 22 97 6a 3e
       0.50861603 -0.51872134 -0.4827934 0.22909215
000200 eb f7 52 3e ac 3c a5 3e 52 26 2d 3e 05 a9 e9 3e
       0.20602386 0.3227285 0.1690915 0.45636764
000210 23 3c 3c 3f 37 d7 3d 3e b1 8e 7e 3e 78 44 8c 3f
       0.7352926 0.18539129 0.2485912 1.0958395
000220 8f 29 b3 3e 8e a4 92 be e3 f8 51 3f 95 2b f4 3e
       0.34992644 -0.2864117 0.82020396 0.476895
000230 df 6a 2e 3f 97 13 b6 3e 13 9a 5b 3e 51 dd 8f 3e
       0.6813182 0.3556182 0.21445493 0.2809854
000240 75 40 31 be f8 7e dc 3d ff cd 50 bd d3 ba 6d 3e
       -0.17309745 0.10766405 -0.050977703 0.23215799
000250 d3 f0 b7 3e fb b5 06 3f 05 00 41 bb e6 c3 0e bd
       0.35925922 0.5262143 -0.0029449475 -0.034854792
000260 d7 f7 a4 3e 53 bf 5c bd 45 e6 23 3e 96 17 8e be
       0.32220337 -0.0538934 0.1600581 -0.2775237
000270 d8 44 ab 3e 7d 41 8a be 4b e1 7a 3d c6 c5 fb 3e
       0.3345096 -0.2700309 0.061250012 0.49174327
000280 a3 2a 21 3f 21 c0 87 be e8 2c 93 3e de ec 69 be
       0.62955683 -0.2651377 0.28745198 -0.22844264
000290 07 6f ae 3e 20 75 84 bc 51 10 c4 3b a2 3e 06 3f
       0.34069082 -0.01616913 0.0059833904 0.5243932
0002a0 1f aa 9b 3e 6d 27 cd 3e 62 84 f6 3e 71 ae 03 3d
       0.3040323 0.40069142 0.48147875 0.032148782
0002b0 e7 c5 12 3f 4e e3 e6 be 5d 74 84 3f c8 e2 05 be
       0.57333225 -0.45095295 1.0348011 -0.13074791
0002c0 c8 d1 17 3f 14 c2 b7 be 29 58 5e be e5 f6 b7 be
       0.59304476 -0.35890257 -0.21713318 -0.35930553
0002d0 e4 dc b7 be 3d 1b bc be 29 6d 29 3b 2e c9 e1 bd
       -0.35910714 -0.3673953 0.0025852418 -0.110247
0002e0 b4 38 bf be 8c 38 77 bf 97 3e 2c 3f 8a b1 d0 bd
       -0.3734795 -0.9657066 0.67283005 -0.10190113
0002f0 69 ef 67 3e 60 e6 85 be d5 d5 7b be a1 1d 18 3e
       0.22649921 -0.26152325 -0.24593289 0.14855053
000300 79 68 c8 3e 09 e4 f1 3e 53 d9 5b 3e 25 cf f8 be
       0.39142206 0.4724429 0.21469621 -0.4859554
000310 c5 70 f0 be f4 a4 c1 3e 10 c5 99 3b 35 25 8e 3e
       -0.46961036 0.37821162 0.004692681 0.27762762
000320 ff 48 15 bf 01 79 29 be ac 6e 95 3e 63 d7 d9 3e
       -0.5831451 -0.16550066 0.29185998 0.4254714
000330 72 d6 e5 be fb ee 80 3f ee 21 ec 3e 2a 75 c9 3e
       -0.4489017 1.0072931 0.46119636 0.39347202
000340 22 99 23 bf 0b f2 ba bd 08 42 96 3e 0b 44 4b 3f
       -0.6390554 -0.09128197 0.29347253 0.794007
000350 05 5d b6 3e 42 e8 23 3f 7d 21 6e bb 8c b5 c3 be
       0.35617843 0.6402627 -0.0036335879 -0.38224447
000360 2d a0 8f 3e c9 49 e3 3d 6f a0 e4 3e a6 a8 9b 3e
       0.28051892 0.11098058 0.4465365 0.30402106
000370 d7 dd 76 3f bb a9 31 be 86 a5 27 bf a6 30 b0 be
       0.9643225 -0.17349903 -0.65486944 -0.34412116
000380 40 02 3b 3f e9 d3 96 be 9c 6b 68 be 41 a9 a7 be
       0.7305031 -0.2945855 -0.226973 -0.32746318
000390 54 77 1c bf c9 1f 1b 3f 6f 02 e3 be 08 2a 20 3f
       -0.6111958 0.60595375 -0.44337794 0.62564135
0003a0 98 ad 7b 3f 90 91 3d bd b6 8c 82 3f c2 f3 86 3f
       0.9831176 -0.046281397 1.0199192 1.0543139
0003b0 16 3f 7e bc a7 bc 7e 3e 2b ca 89 bd f7 e6 0e bf
       -0.015517971 0.24876653 -0.067280136 -0.55821174
0003c0 6c 73 44 3f 4e e0 9e bd 6d c0 53 be 85 2e 58 3f
       0.7673862 -0.077576265 -0.20678873 0.84445983
0003d0 db af 18 3f 9b 5e 18 be f3 b0 22 3f bc fe b4 3f
       0.59643334 -0.14879839 0.63551253 1.4140239
0003e0 f3 78 53 be 3b 24 67 3f 12 f6 91 be 48 cb a6 3e
       -0.20651607 0.9028966 -0.2850805 0.32576966
0003f0 54 13 8c be 55 e8 99 be f3 cf ea 3c 1c f0 43 be
       -0.27358496 -0.30060068 0.028663611 -0.19134563

l1.bias f4 [8]
000000 e3 dd 08 3f 6d af 38 3f 80 c1 b7 3e 57 60 57 3f
       0.5346357 0.7214268 0.35889816 0.8413138
000010 d5 b2 1e 3f 88 0b 30 3f db af 3c 3f 15 1d 0b 3f
       0.61991626 0.68767595 0.73705834 0.5434125

l2.weight f4 [8, 8]
000000 fa 2f 8c 3e 2f f2 72 3f 98 60 89 3f 11 46 80 bf
       0.27380353 0.9490079 1.0732603 -1.0021383
000010 81 7d 53 bf 76 b2 5e 3e ba 73 0d 3f 36 88 b8 3f
       -0.8261338 0.21747765 0.5525471 1.4416568
000020 b1 61 e8 be ee e8 57 3f 1b f0 01 3f a8 e3 85 3f
       -0.45387033 0.843398 0.50756997 1.04601
000030 83 1d b0 3f 58 85 41 bf 8c 83 92 3e 17 a9 e8 bd
       1.3759006 -0.7559409 0.28615987 -0.11360376
000040 b0 36 94 bf ed e9 ac be b5 05 62 3f 40 86 c7 3f
       -1.1579189 -0.3377222 0.8828996 1.5587845
000050 51 0e 8b 3f 42 46 94 3f 1a cf 30 bf 12 d2 9d 3f
       1.0863744 1.1583941 -0.6906601 1.2329733
000060 a2 35 b6 3f d2 4f 8d 3f 3d 7b ab bf 13 81 ad 3f
       1.4235117 1.1039984 -1.3396984 1.3555015
000070 ac 50 8c bb ed 4f 59 3e de 5f d1 3e 86 13 56 bf
       -0.004282078 0.21221896 0.40893453 -0.8362354
000080 23 5b 23 bf fd f5 f6 be 4d 33 f5 3d b0 bb c4 3f
       -0.6381094 -0.4823455 0.119726755 1.5369778
000090 2f be a3 bf 18 a6 3d 3f f6 7e c1 3f c5 8d 26 3f
       -1.2792414 0.74081564 1.511687 0.65060073
0000a0 68 3a f4 3f 96 a4 ef 3e 98 d1 2a bf 8a 0a 88 bf
       1.9080324 0.46805257 -0.66726065 -1.0628216
0000b0 60 b1 40 3f 0f 5d f0 3f c6 95 13 3f af 68 ae 3b
       0.7527065 1.8778399 0.5765041 0.005322538
0000c0 4b 11 a2 3d c8 22 c2 3f ab 51 2d 3e f6 70 2d 3e
       0.079134546 1.5166864 0.16925685 0.16937622
0000d0 a7 7d a5 be aa ed 05 bf d6 d4 d6 3f ee 12 d3 be
       -0.32322428 -0.5231577 1.6783702 -0.4122538
0000e0 b6 7a 09 bf 05 69 9c be 83 e2 5d 3f 0b 52 71 3e
       -0.5370287 -0.30548874 0.86673754 0.23566453
0000f0 cb 84 25 bf d0 f6 55 3f a3 7e 05 3f 2a 67 c3 3f
       -0.6465575 0.8357973 0.5214636 1.5265858

l2.bias f4 [8]
000000 bc 5a 82 3e 18 0a 50 3e 45 e7 2d 3f b9 b5 47 3f
       0.2545985 0.2031635 0.67931014 0.7801166
000010 68 04 62 3e 77 8a b4 3e fa 89 9b 3e f8 74 05 be
       0.22071993 0.3526189 0.30378705 -0.13032901

l3.weight f4 [14, 8]
000000 dc b0 66 3e 34 2f 2a bf e6 f2 fb 3e 5c c2 d6 be
       0.22528404 -0.66478276 0.49208754 -0.4194516
000010 cb 0e d7 3e e2 60 c1 bf 61 16 11 c0 b8 1a 23 3f
       0.42003474 -1.5107691 -2.266991 0.63712645
000020 77 07 36 3f 29 cf b4 bf 65 64 ee be 43 e0 26 be
       0.7110514 -1.412572 -0.4656097 -0.16296487
000030 5a cf 02 bf da b6 1e 3f 4c 91 8a be a0 8e ca 3e
       -0.51097643 0.6199776 -0.27063978 0.3956194
000040 c9 41 09 3d 91 65 e2 3e 7f 15 8e bf 62 fc 61 3e
       0.033510003 0.44218114 -1.110031 0.22068933
000050 19 9e 15 c0 c0 91 21 3f 0f 42 25 3f 29 03 bb bf
       -2.3377745 0.6311302 0.6455392 -1.4610339
000060 10 c1 d1 bf cb 4b 73 3f d5 50 da 3e ee 17 c6 3e
       -1.6387043 0.95037526 0.42639795 0.38690132
000070 69 3a b0 bf 10 54 dd be 92 05 96 3c 18 99 0f c0
       -1.3767825 -0.43228197 0.018313203 -2.243719
000080 a9 a9 bb bf 3e 10 01 bf 1e 30 1d 3f f3 d6 a2 bc
       -1.4661151 -0.5041541 0.61401546 -0.019877886
000090 9e ad 3a bc 3a 3a ab 3e b6 93 9c bf ee 8a 98 be
       -0.011393933 0.3344286 -1.2232578 -0.29793495
0000a0 da b5 ab 3e 07 fe 35 bf cd e5 f2 bd 96 66 88 3e
       0.3353718 -0.7109074 -0.11860237 0.26640767
0000b0 2c 6e 03 3f a4 53 03 c0 b3 ab 88 3e 85 51 47 3e
       0.51339984 -2.05198 0.26693496 0.19464691
0000c0 87 62 4d bf e8 ec 26 bf 9d 4a 9e 3e bb 30 79 3f
       -0.80228466 -0.6520524 0.309163 0.9733998
0000d0 cc 7d de bf 9c 84 8e 3f 3b d1 f6 bf 54 4d da bf
       -1.738214 1.1134219 -1.9282602 -1.7054849
0000e0 ae 12 99 3d 4e a1 92 bf d2 9b ab bf 96 d1 0c 3f
       0.07474266 -1.1455476 -1.3406928 0.550073
0000f0 f8 10 2f be ec ea a4 3e ca 03 ba 3e 55 fa 2e bf
       -0.17096317 0.3221048 0.36331016 -0.68350726
000100 73 58 0f 3f 6c 4f 4e be 38 9a be bf f0 05 7c be
       0.5599434 -0.20147485 -1.4890814 -0.2461164
000110 9a 48 88 be 90 71 7a bf f0 e5 51 3f 72 ae fa bd
       -0.2661789 -0.9782953 0.8199148 -0.12240304
000120 64 9f 61 3e 6f dd eb bf df 68 27 3e 7c c6 c0 bf
       0.22033459 -1.8426951 0.16348599 -1.5060573
000130 3d 35 03 3f a7 3b d5 3c 0b 45 79 bf 3f 6c 28 3f
       0.5125311 0.026029421 -0.97370976 0.6579017
000140 6e 41 ef 3d b7 0d 16 3e 9b 2d 9c be 1d e8 7f be
       0.116824016 0.1465367 -0.30503544 -0.24990888
000150 4f ce dd be 92 82 f3 bd b7 50 de 3d 1f f8 9c 3d
       -0.43321463 -0.11890139 0.10855239 0.07664513
000160 7d 7a f9 3d 02 4f af 3e 2b f3 13 3f b3 c0 58 bf
       0.12181566 0.34239966 0.5779292 -0.84669036
000170 a0 70 f3 bf c7 ad 8a bf 0a 33 2b bf 09 99 01 3e
       -1.9018745 -1.0834283 -0.66874754 0.12656035
000180 ee 28 36 3e d6 d8 21 3e b5 b8 31 3f 1b fc 9b bf
       0.17789051 0.15805373 0.69422466 -1.2186311
000190 8b b1 ea bf 4f 2e 93 3e 60 c3 88 bf d6 fb 14 be
       -1.8335432 0.28746268 -1.0684624 -0.14549193
0001a0 b5 fb 4a bf 7a 3a f2 3e ca f4 72 bf 11 36 34 3f
       -0.79290324 0.4731024 -0.9490477 0.70395
0001b0 b9 a0 82 3e ea 9d b1 bf 90 a4 46 3f ca e5 cc bf
       0.25513247 -1.3876317 0.7759485 -1.6007626

l3.bias f4 [14]
000000 2b 99 39 3e 04 cc 8e 3e 97 14 90 3e 10 7d 41 3e
       0.18124835 0.27890027 0.2814071 0.18895364
000010 57 fa d9 bd 7e 6a 83 be 9f ca 88 3e 40 1c c9 be
       -0.10643452 -0.25667185 0.26717088 -0.39279366
000020 9f ed ab be c0 d9 97 be ee 14 32 bf 1b 6e 42 3e
       -0.33579728 -0.29658318 -0.69563186 0.18987314
000030 66 20 a5 3e d8 6b 88 bd
       0.3225128 -0.066611946
