Backend_work/Medicine_AI/Home/data.pth (torch, 7775 bytes, 6 tensors)

l1.weight f4 [8, 96]
00000000: 6aff 3dbe abfc a9be b41e 2e3f d65d 913f
00000010: 5422 f63e c2e8 b2be 0c1b 20be 31f4 8bbe
00000020: 6c08 d53e 3e1a ce3e 9324 d93d 38e0 513f
00000030: 4bf7 7f3e cae8 ef3e c4e8 a8bd de03 22bf
00000040: 4203 073f 51cc 403f 934d 2abe ed9e dfbe
00000050: 3bb7 79be 89e0 c8be 2273 1c3f f365 073f
00000060: d243 d43e a109 f03e 5e54 f63e 52fd 3fbd
00000070: ea8d 21bd 214d 003f 4e9c b4be 091b 073f
00000080: d8b0 063e bd17 a3be d237 38be 0166 373f
00000090: 6ca6 003f 5be0 21bf a164 fa3e 9769 aabe
000000a0: 0cf3 463f d084 27be bb9e 583f e5f6 603d
000000b0: 0e62 183f 4341 13be 6f6f e53e 188b 1e3f
000000c0: 0097 4a3e 72da 98be d675 c2be 8e7a d3bd
000000d0: 5f83 2ebf 54ee 5bbe cf5c 6cbe 5a84 483d
000000e0: 4b42 9a3f cf09 b53f 797b 18be 389a 92bf
000000f0: 38b2 9a3e 6603 c7be 4be3 49be 41cf 253f
00000100: d8e6 a33b 41df fd3d 1b15 16be 616c 0d3d
00000110: a180 c63e a383 fdbe 0188 053f ea1a 9abe
00000120: 6ba9 2cbf 759c 503e c113 033f 2513 a93e
00000130: e1c7 5abf 6936 95be 90ef 2cbe 84ec 3e3f
00000140: 5d77 edb8 26c5 ddbe 5c7f 79be 994b 99be
00000150: 4b79 43be b82d 0a3d 8c3a 623f f78a a6be
00000160: 5f4f 4ebf 5ba6 7f3f b1b0 2f3f 6bf2 13bf
00000170: 0fd7 21bf 7617 0b3f c85c 963e 4599 1a3f
00000180: d4c7 8f3e 8da4 e63e 5868 173e 94ee 3fbd
00000190: 9662 cfbe ebe3 4e3f 269a 3ebe c64f 813f
000001a0: 9a01 cfbe dadb 133f 51e5 343f 932d 2cbc
000001b0: 7bef 893e b757 463f 3f49 1a3f ca18 ee3d
000001c0: 06d2 f93e ac3f 823e bde0 783f 0143 fc3e
000001d0: ac8b 27be 9e92 163f 9dee 1d3f a63a b4bd
000001e0: 1568 723e 1c57 3ebf 335c b83e fcad dfbd
000001f0: 7249 bdbd ae75 a33e 9ec2 1d3f 4c61 f2bc
00000200: 60f0 0a3f 8d0d 9fbe d43a 8bbe 2a16 393f
00000210: 3c7e e93e 461a 083e ff7d fdbe b398 46be
00000220: 7432 653f 271a 303f 010e 443f cc41 cd3e
00000230: 6f93 153f 7379 6e3f ca68 a33f 0fdc 133f
00000240: 9067 343c 13f4 2bbf 2a29 21bf a6f0 333f
00000250: 089a 99bd 25cb 20bf aec3 d7bd c3b9 e03e
00000260: 70b4 32bf 8b9b 02bf 6f4c 14bd b5c1 563f
00000270: 8e31 03bf c347 81be e6ba b2bd f0bd 2a3d
00000280: 7225 063f de85 b13e ab05 023f 3aa4 81be
00000290: 7d6d 07bf a82f 52bd c698 bcbe 172f a8be
000002a0: ab9e 413f defd de3e 9803 a9be 8fbd 6dbe
000002b0: 51c1 ac3f 6e91 133f 524f 22bf a317 a23e
000002c0: 14f0 a83e 6dd5 1abf 0a2e 1cbe 2ec6 f9bd
000002d0: 8c30 c3be 4a02 b23e 09bd 03bf f265 f2be
000002e0: 2d27 2abf b5c7 95bf c95d 7c3e a258 29bf
000002f0: e25e 29bf 3b79 be3e 119a d83e 8c56 fabe
00000300: f838 1a3e dd5d 2cbf 2d01 943f aa8c 803f
00000310: f8fc a93e a454 7b3e 1fe3 273d 4bc6 453f
00000320: 58c1 ab3e dc8a 093f 0422 25bf a7f3 9d3f
00000330: eee6 983c 33be 4bbe ae58 063f 381e 1cbf
00000340: 2114 d5bd a9f7 43be ee64 56bf 7fdb bfbe
00000350: 31ba 8c3e 58cd c4be e89b 243f d2d3 f73e
00000360: 401f 313f 47de f23e 94bd a1bd 3e6f c9bd
00000370: 719f 223c be7f d63c 9cb2 f9be 65d8 8f3f
00000380: 4395 93be c738 99be e070 cbbc eeb9 8ebf
00000390: b839 053f 2049 17bf 8ee2 563f 6aeb c83e
000003a0: 085f 4c3f 521d 2ebe 6419 503f 31d7 8abe
000003b0: 7986 4b3f a1cb 5e3f 15bb 593f e6b1 aa3e
000003c0: 47e1 b93e d155 f0be 13cb 0abf 1e96 5d3e
000003d0: fcb1 e8be f95c febe 294a e3be 559b b83e
000003e0: 78f9 083f 8c13 1a3f 55a4 cabd b95c 863f
000003f0: e09c a23e bf07 dc3e ba06 05be 7890 a73e
-0.18554464 -0.33200583 0.680156 1.1356761 0.48073065 -0.34943205 -0.15635318 -0.2733474
0.41607988 0.40254396 0.10602679 0.81982756 0.24996679 0.4685729 -0.082475215 -0.6328715
0.52739346 0.7531176 -0.16631155 -0.43675938 -0.24386303 -0.39233807 0.6111318 0.5288994
0.41457993 0.46882346 0.48111242 -0.046872444 -0.03944198 0.5011769 -0.352755 0.5277563
0.13153398 -0.31854048 -0.17990044 0.7164002 0.5025394 -0.63232964 0.489049 -0.33283684
0.7771461 -0.16359258 0.84617203 0.054922957 0.5952462 -0.14380364 0.4481158 0.6193099
0.19784164 -0.2985416 -0.37980527 -0.1032611 -0.68169206 -0.21477634 -0.23082279 0.048954345
1.2051481 1.4143618 -0.14890851 -1.1453314 0.30214095 -0.3886978 -0.19715612 0.6476937
0.005001884 0.12396098 -0.14656489 0.034527186 0.3877001 -0.49514493 0.5216065 -0.3009866
-0.6744601 0.20372184 0.5120202 0.3302242 -0.8546124 -0.29143074 -0.16888261 0.74579644
-0.00011323274 -0.43314475 -0.2436499 -0.2994049 -0.19089238 0.033735007 0.88370585 -0.32527897
-0.8058986 0.99863213 0.68628985 -0.57791775 -0.6321878 0.54332674 0.2936766 0.6039012
0.28082144 0.45047417 0.14785898 -0.046858385 -0.40504903 0.80816525 -0.1861349 1.010247
-0.4043091 0.5775734 0.7066241 -0.010508913 0.26940522 0.7747759 0.60268015 0.11625822
0.48793048 0.25439203 0.97217923 0.4926987 -0.16361874 0.5881747 0.6169222 -0.08800249
0.23672517 -0.7435167 0.36007842 -0.10921857 -0.09242524 0.3192572 0.6162509 -0.02958741
0.54273033 -0.31065026 -0.2719332 0.72299445 0.45604122 0.13291273 -0.4951019 -0.19394188
0.8953011 0.68789905 0.7658387 0.40089262 0.5842809 0.93154067 1.2766354 0.5775766
0.011011019 -0.671693 -0.62953436 0.70289075 -0.07500082 -0.62809974 -0.1053537 0.43891725
-0.69806576 -0.5101859 -0.036205705 0.83889323 -0.5124749 -0.25250062 -0.08727054 0.041685045
0.52400887 0.34672445 0.507899 -0.25320607 -0.5290144 -0.05131498 -0.36835307 -0.32848427
0.75632733 0.4355306 -0.33010554 -0.23216842 1.3496495 0.57643783 -0.63402283 0.31658658
0.32995665 -0.6048191 -0.15251938 -0.12196003 -0.38122976 0.3476737 -0.5146032 -0.47343403
-0.6646603 -1.1701571 0.24645151 -0.6615087 -0.66160405 0.37201867 0.42305043 -0.48894155
0.15060794 -0.67330724 1.1562859 1.0042927 0.33200812 0.24544007 0.040988084 0.77255696
0.33545947 0.5372751 -0.6450503 1.2339982 0.018664803 -0.19896774 0.52479064 -0.6098361
-0.1040423 -0.19137444 -0.83747756 -0.3747215 0.27485803 -0.38437915 0.64300394 0.48403794
0.6918831 0.4743521 -0.07897487 -0.09835671 0.009925709 0.02618396 -0.4876908 1.1237913
-0.28824815 -0.2992613 -0.024834096 -1.1150491 0.52041197 -0.59095955 0.83939445 0.39242107
0.79832506 -0.17003372 0.81288743 -0.27117303 0.79502064 0.87029463 0.8505109 0.3333885
0.36304685 -0.46940473 -0.54216117 0.21639296 -0.4544829 -0.49680308 -0.44392517 0.3605601
0.5350566 0.60186076 -0.09894625 1.0497047 0.3176031 0.4297466 -0.12990847 0.32727408

l1.bias f4 [8]
00000000: b819 213f 90eb 273f c8a8 833f cd39 0b3f
00000010: 4f71 273f d83d 6f3f f59d 503f 0071 d23e
0.6292987 0.65593815 1.0285883 0.5438507 0.6540727 0.9345374 0.81491023 0.41101837

l2.weight f4 [8, 8]
00000000: 9d83 a03f abd1 aabe c52a b33f ffab 12bf
00000010: 6a35 6dbf a7ea dc3f 6548 1cbf a509 0b40
00000020: f748 8b3f e7ff 46be 7cc7 963e 5732 503e
00000030: b6c0 b03c b41e 1abf 8b4a 323f c14d 253f
00000040: 22ac 533e bfa5 993f 74ae a83e 7e0f a73f
00000050: 45c1 bbbf d7b9 bf3f 84bc 5a3d 224a 22bf
00000060: 37d5 263d d2ad b23f 5178 763f 7019 2fbf
00000070: a4ad 733d 4ca7 98bf b9b1 bb3f 589e 56bf
00000080: b04c c73b 6aac a8bf e10f c33e 95d3 63bf
00000090: dc1e 873f e20b 5a3f cb35 b23f ef6c 1a3f
000000a0: b0a6 9f3f e00f 90be 88ee 2f3f c590 ad3f
000000b0: 2d1f c33f 1582 6e3f e27a 32bf 9ea4 dbbf
000000c0: f239 aebf ab8e 963d 0d1f e43c f53a 053f
000000d0: 2c8e 4e3f a13f c53f 6606 223f 307f 0340
000000e0: f8b6 d63e 0d0c 9a3f 4db9 9abd c723 973f
000000f0: 4815 6b3f 7489 0ebf 6208 043f 093f 023f
1.2540165 -0.3336309 1.3997427 -0.57293695 -0.9265963 1.725911 -0.61047965 2.1724637
1.0881642 -0.19433556 0.2944907 0.20331703 0.021576267 -0.602031 0.69644994 0.6457177
0.20671132 1.2003707 0.32945597 1.3051603 -1.4668356 1.4978589 0.05340244 -0.6339437
0.04073068 1.3959296 0.9627734 -0.6839819 0.05949177 -1.1926055 1.4663612 -0.83835363
0.00608214 -1.3177617 0.38098052 -0.88994724 1.0556293 0.8517438 1.3922666 0.6032247
1.2472744 -0.28137112 0.68723345 1.3559805 1.5243889 0.9316724 -0.69718754 -1.7159612
-1.3611434 0.073514305 0.027846837 0.52043086 0.8068569 1.5410043 0.63291013 2.054638
0.4193647 1.2034928 -0.075548746 1.1807793 0.9182935 -0.55678487 0.5157529 0.50877434

l2.bias f4 [8]
00000000: a7d9 e73d c804 2bbf 9ef4 613f 98b4 7c3f
00000010: c299 493f ce49 253f dda9 873e b6dc 3cbf
0.11320811 -0.6680417 0.8826388 0.98713064 0.7875024 0.6456574 0.26496783 -0.7377428

l3.weight f4 [19, 8]
00000000: a084 67bf 10cf 19bf 3b29 ad3d 89fb 6fbf
00000010: 3696 f1bf 1597 783f d9fb d8bf 68fd 593f
00000020: a842 3e3f f6a7 103f 8f1a 81bf 6339 89bf
00000030: 844a 8b3e ac07 cbbe 2e22 54bf 68ab 99be
00000040: 0fd9 63be f145 a6bf 529f 73bf d6d3 9c3e
00000050: 1508 f1be 5900 223e fc54 18be fb94 a53e
00000060: c9f0 043f 9ef9 933e 6f0f d1be 7eaf 003f
00000070: d7c4 83be 9b34 14c0 098e b0bf a3df 773e
00000080: e592 bdbf d295 423f 22e2 a63e f783 bd3e
00000090: 1566 bcbf cbc7 cabf de30 77bf b370 293f
000000a0: d7ad 903e bdc7 46bf d07b 0b3f 8417 c9bf
000000b0: df96 d8bf 4861 4ebe ae2c cbbe d060 873e
000000c0: 9699 8dbf 2ce1 01c0 e469 3e3f 1481 6d3f
000000d0: eeac da3e 86ae a1bf 6c1a b2be cf22 92bf
000000e0: f03c 023f 4dbf fbbf d0e7 4b3f 2d78 cebf
000000f0: 63a1 09be cdc3 273f 7bc9 b0bf dca9 bcbf
00000100: ee16 043f 3200 04bf bba0 393f c93d 343f
00000110: af9d d1bf ceaa a13d 0fd9 23c0 adf8 1cbf
00000120: c23c e6bf 6e2b f2bf 2166 5cbf f2e8 a3bf
00000130: 233b d73e 1d94 3c3f 79eb 913d 97df 023c
00000140: 2039 bfbe f465 42bd 78e4 e5bf 8037 b4bf
00000150: e0ee 5a3e 7886 9abf 3893 d73e 707d 293e
00000160: a223 753e ba5a 493f 815d 8ebd f438 02c0
00000170: f899 e8be 4d6b 3e3f 1bdd 00c0 9a8b 1ebe
00000180: f66f 243f 1a8d c6bf e1ab 853d 5d57 cebf
00000190: 3b61 cb3e 4d67 6fbf 8288 ebbc 5239 c8bf
000001a0: a372 e1bf a035 99bd c094 bdbf 1749 a1bd
000001b0: f339 7dbd 9106 bfbf 7f33 9d3e 69a2 2c3f
000001c0: 03a1 03bf 2bb0 1abd ff18 f7be c739 0b3e
000001d0: 342d 86bd 15a0 df3e 1bf1 3ac0 f264 d03e
000001e0: 62bb 17be f9d0 f53e 862c 8fbf df1d c33e
000001f0: 608f 7a3e bb23 843e 6d31 23c0 b936 81be
00000200: 412c 9abf fe7b 25c0 0624 803f 9dc8 443e
00000210: 5a5e 11c0 0363 f4bd 7391 97be 1112 923e
00000220: 62ae b3bf 3737 a7bf d64e 1fc0 cc70 043f
00000230: d0d5 643f 7941 813c 198f e2bd b88e c2be
00000240: 6a59 cd3e 6ded 66c0 3cb2 3cc0 e253 c9be
00000250: 2bea 1a3f 9cba c53e 457a ce3e 85b4 60bf
-0.90436745 -0.6008158 0.0845513 -0.9374319 -1.8873966 0.9710553 -1.6951858 0.8515229
0.7432046 0.5650629 -1.008623 -1.0720638 0.27205288 -0.3965429 -0.82864654 -0.30013585
-0.2225077 -1.2990094 -0.9516498 0.30630368 -0.4707648 0.15820445 -0.14876169 0.32340226
0.5192991 0.2890138 -0.40832087 0.5026778 -0.25736114 -2.3157108 -1.3793346 0.24206404
-1.4810454 0.7600986 0.325944 0.37014744 -1.4718653 -1.5842222 -0.9655894 0.6618759
0.2825763 -0.77648526 0.544858 -1.5710301 -1.6921042 -0.20154297 -0.39682525 0.2644105
-1.1062496 -2.0293684 0.74380326 0.9277508 0.4271006 -1.2631385 -0.34785783 -1.1416873
0.50874233 -1.9667755 0.7965059 -1.6130425 -0.1344047 0.65533143 -1.3811487 -1.4739337
0.5159749 -0.515628 0.7251088 0.70406777 -1.6376246 0.078939065 -2.5601232 -0.6131695
-1.7987292 -1.8919504 -0.86093336 -1.2805464 0.42037305 0.736635 0.07124991 0.007987878
-0.3734827 -0.04746051 -1.7960348 -1.4079437 0.21380186 -1.2072287 0.42104506 0.16551757
0.23939374 0.7865406 -0.06951428 -2.0347261 -0.4542997 0.7438248 -2.0134952 -0.15482941
0.6423334 -1.5511811 0.06526924 -1.6120411 0.39722618 -0.93517 -0.028751615 -1.5642493
-1.7613109 -0.07480931 -1.481102 -0.07875269 -0.061822843 -1.4923879 0.3070335 0.6743532
-0.5141756 -0.037765663 -0.48261258 0.13596259 -0.065515906 0.4367682 -2.920966 0.40702015
-0.14817575 0.48010996 -1.1185462 0.38108727 0.24468756 0.2580851 -2.5498917 -0.25237063
-1.2044755 -2.585693 1.0010993 0.19217153 -2.2713838 -0.119329475 -0.29603156 0.2852941
-1.4037592 -1.3063725 -2.4891868 0.51734614 0.8938875 0.01577829 -0.1106245 -0.3799951
0.4010728 -3.6082413 -2.9483786 -0.3932181 0.6051356 0.38618934 0.4032766 -0.8777545

l3.bias f4 [19]
00000000: 2d71 8d3e 0705 3a3c a000 c3be 186c 2b3e
00000010: 1e51 3a3e da3f 32bc 794b 093f e80e f43e
00000020: 2385 b43d 5001 823e 4392 debd 34d8 0cbf
00000030: b09f 23be 62f6 ea3d c0ce 8bbc 6977 723e
00000040: edc6 dc3c 6207 543e 56c4 d13e
0.2762541 0.011353738 -0.38086414 0.16740453 0.18195006 -0.010879481 0.5363079 0.47667623
0.08814456 0.25391626 -0.10867741 -0.550174 -0.15978885 0.11472775 -0.01706636 0.23678364
0.026950324 0.20705941 0.40970105
