Backend_work/Medicine_AI/Home/data.pth (torch, 7775 bytes, 6 tensors)

l1.weight f4 [8, 97]
0	0x3d8ebcf1	0.069696315
1	0x3ed0e9c1	0.4080334
2	0x3f858606	1.0431526
3	0xbb51fdff	-0.0032042263
4	0x3ef7ad5a	0.48374444
5	0x3f7aa368	0.9790559
6	0x3ecd28c5	0.40070167
7	0xbe3316dd	-0.1748919
8	0x3ead920e	0.33900493
9	0xbe9cbac3	-0.30611238
10	0xbf5b4eeb	-0.85667294
11	0x3efd18fe	0.4943313
12	0x3d509413	0.050922465
13	0xbe9f139e	-0.31069654
14	0x3f8a6a71	1.0813733
15	0x3f759aac	0.95939136
16	0x3d920325	0.07129506
17	0x3f443aed	0.76652414
18	0xbf74441b	-0.9541642
19	0xbf7b35e0	-0.9812908
20	0x3f62dc34	0.88617253
21	0xbf473003	-0.77807635
22	0xbea2d95e	-0.31806463
23	0xbefd9f17	-0.49535438
24	0x3f0017c1	0.50036246
25	0x3f93c131	1.1543332
26	0xbdc0b047	-0.09408622
27	0x3ecbb20c	0.39784276
28	0x3e8a4077	0.27002308
29	0xbbb31616	-0.0054652793
30	0xbf431f40	-0.7621956
31	0x3f8d3247	1.1030968
32	0xbe987e63	-0.29783925
33	0xbf042e11	-0.5163279
34	0x3e9616b6	0.29314202
35	0xbf886d36	-1.0658329
36	0xbe5eac60	-0.21745443
37	0x3f55579e	0.8333682
38	0xbf0835d0	-0.5320711
39	0x3f8145ce	1.0099428
40	0xbf0884be	-0.5332755
41	0xbe59bdf4	-0.21263868
42	0xbf08f117	-0.53492874
43	0xbf0835e5	-0.53207237
44	0xbe3859fc	-0.18003076
45	0xbe8b612e	-0.2722258
46	0xbdc4cefb	-0.09609791
47	0xbe2219f5	-0.15830214
48	0x3dad03c2	0.08447982
49	0xbd678d3b	-0.056531172
50	0xbf78f021	-0.9724141
51	0x3f22d6cd	0.6360901
52	0xbea4049e	-0.32034773
53	0x3ecb955f	0.397624
54	0xbea0be5b	-0.3139523
55	0xbe927912	-0.28607994
56	0x3d8dbe55	0.069210686
57	0x3f42f896	0.7616056
58	0xbf4bdbce	-0.7963227
59	0x3e66d21f	0.22541092
60	0xbf1f5a4d	-0.62247163
61	0x3f38138d	0.7190483
62	0x3f5b471d	0.85655385
63	0x3ecfa229	0.40553406
64	0xbeda30e1	-0.42615417
65	0xbec338dd	-0.3812932
66	0xbe63e07a	-0.222536
67	0xbba22534	-0.0049482826
68	0x3f8534b5	1.040671
69	0xbee177c6	-0.44036692
70	0xbf0814f7	-0.5315699
71	0x3eb7f7b9	0.35931185
72	0x3f4fa177	0.8110575
73	0xbede73fa	-0.43447858
74	0x3f7bc78a	0.9835135
75	0x3c975f44	0.018478043
76	0x3f35f418	0.7107558
77	0x3eb42557	0.35184738
78	0xbf47bf65	-0.7802642
79	0xbe464ad0	-0.19364476
80	0x3eaf1283	0.3419381
81	0xbea32ef0	-0.31871748
82	0xbf12c164	-0.5732634
83	0x3f3565d3	0.70858496
84	0x3f50e67e	0.81601703
85	0x3f393916	0.7235273
86	0x3ee62fac	0.44958246
87	0xbe592cea	-0.2120854
88	0x3f4e9467	0.80695194
89	0xbebcc272	-0.368671
90	0x3f7777de	0.9666728
91	0x3e035e3c	0.12828916
92	0xbf07fabc	-0.53116965
93	0xbefc3da5	-0.4926578
94	0x3eec3f3f	0.46142003
95	0x3d1548e6	0.036446474
96	0x3f2e4e86	0.6808857
97	0x3e6a24ba	0.22865573
98	0xbf24710f	-0.64235014
99	0x3f14d932	0.58143914
100	0x3fc47708	1.5348825
101	0x3f31ff7b	0.6953046
102	0xbeec01b9	-0.46095064
103	0x3e6e00b8	0.23242462
104	0xbb88e020	-0.0041771084
105	0x3f1d5798	0.6146178
106	0xbe328c47	-0.17436324
107	0x3e85635d	0.2605237
108	0x3ed37040	0.41296577
109	0xbd7411f6	-0.05958744
110	0xbebc78b7	-0.36810848
111	0xbf296d63	-0.66182536
112	0x3f4cc152	0.79982483
113	0x3de78eef	0.11306559
114	0xbd82daca	-0.06389387
115	0x3f516403	0.8179323
116	0x3f834296	1.0254695
117	0xbecc0950	-0.39850855
118	0x3f0f0c80	0.5587845
119	0x3efe4e68	0.49669194
120	0x3bbce0ad	0.005764088
121	0x3f4a6714	0.79063535
122	0xbd1be1a6	-0.038056992
123	0x3f537521	0.826006
124	0x3d978b4e	0.07399617
125	0x3dc84911	0.09779561
126	0x3f31d8f6	0.6947168
127	0x3f02e75f	0.51134294
128	0x3b65fd1d	0.0035093494
129	0xbe945203	-0.2896882
130	0xbef29b35	-0.4738404
131	0xbe84bd28	-0.25925565
132	0x3f8e2c79	1.1107322
133	0x3f0ac0c9	0.54200417
134	0x3f4efd27	0.8085503
135	0xbdd6d78d	-0.10490332
136	0xbf1b1abb	-0.6058766
137	0x3f4cfbfc	0.80072
138	0x3f4a9c25	0.7914451
139	0x3f4cf557	0.8006186
140	0x3f4f7429	0.8103662
141	0xbe9eaa45	-0.3098928
142	0xbe225a78	-0.15854824
143	0xbdf09959	-0.11747999
144	0x3f6fee54	0.93723035
145	0x3f3d18f9	0.7386623
146	0x3d6dc94f	0.05805331
147	0xbf07048b	-0.5274131
148	0xbdbb2957	-0.09138744
149	0x3ea97263	0.33095083
150	0x3e8d9331	0.2765136
151	0xbf19b793	-0.6004574
152	0xbf099a33	-0.53750914
153	0x3e1c326a	0.15253606
154	0x3f5c4328	0.8603997
155	0x3f7ad61d	0.9798296
156	0x3e1876d1	0.14889075
157	0xbf48e329	-0.7847162
158	0xbf0ded61	-0.55440336
159	0xbf319b60	-0.6937771
160	0x3e1c4468	0.1526047
161	0x3f78f134	0.97243047
162	0x3f25c02d	0.6474636
163	0xbec735eb	-0.38908324
164	0xbca1313c	-0.019676797
165	0xbe2a4dab	-0.1663119
166	0xbd9e593d	-0.077318646
167	0xbe34881b	-0.17630045
168	0x3ea6e7b4	0.3259865
169	0x3e1a2ef7	0.15056978
170	0xbf260500	-0.6485138
171	0xbf908d9d	-1.1293217
172	0x3c232ad7	0.009958944
173	0x3e13bd72	0.14427736
174	0x3e490f65	0.19634779
175	0x3f3ac513	0.7295696
176	0x3f41df23	0.75731105
177	0xbe7db0bf	-0.24774455
178	0x3f77bc3b	0.9677159
179	0xbea2691c	-0.31720817
180	0xbd83a37d	-0.06427667
181	0xbecc2963	-0.39875326
182	0xbef8fae1	-0.48628905
183	0xbe84ad28	-0.25913358
184	0xbe1d84d4	-0.15382701
185	0xbc934b5f	-0.017980276
186	0xbf7cede4	-0.9880049
187	0x3fa5cafd	1.2952572
188	0x3f8d72dc	1.1050677
189	0xbd9e104d	-0.07717953
190	0xbcaff9c2	-0.021481398
191	0x3f18924d	0.5959824
192	0x3f984d32	1.1898558
193	0x3f3f48cd	0.7472046
194	0x3e5eb83a	0.21749964
195	0xbe52b7ad	-0.20577879
196	0xbec4f1a0	-0.38465595
197	0x3e911155	0.28333536
198	0xbc63f7d4	-0.013914067
199	0x3e9b9f21	0.30394843
200	0xbe5f38af	-0.21798967
201	0xbec65c28	-0.38742185
202	0xbd90b57a	-0.07065864
203	0xbd31c91b	-0.04340468
204	0xbe4b7c97	-0.19871746
205	0x3e239f9e	0.15978858
206	0xbd3606af	-0.044439968
207	0x3d1b87dc	0.037971362
208	0x3f30624d	0.68899995
209	0x3fa377ea	1.277097
210	0xbdf1e4bc	-0.11811206
211	0xbeee7163	-0.46570882
212	0x3efb40d3	0.49072894
213	0xbf01f945	-0.5077098
214	0x3f1503d7	0.58208984
215	0xbdca8fc0	-0.098906994
216	0xbeba7f4b	-0.36425242
217	0x3ec5225b	0.38502774
218	0xbdbeb084	-0.093110114
219	0x3d422718	0.047400564
220	0xbe363a30	-0.17795634
221	0xbda41a53	-0.080128334
222	0xbe56facb	-0.20994107
223	0xbe536237	-0.20642935
224	0xbd20f93c	-0.03930019
225	0x3f02523b	0.50906724
226	0xbc4db2bc	-0.012554821
227	0xbe883717	-0.2660453
228	0x3f534411	0.82525736
229	0xbeae8056	-0.34082288
230	0xbeb40afe	-0.35164636
231	0x3fb3dd51	1.4051915
232	0xbe819f88	-0.25317025
233	0x3f45eeb6	0.7731737
234	0xbf36d86a	-0.7142397
235	0xbeea7280	-0.45790482
236	0xbf36f1d1	-0.7146273
237	0xbf37306c	-0.7155826
238	0xbe1084b3	-0.1411312
239	0x3e64f211	0.22357966
240	0xbe9583b2	-0.29202038
241	0xbf0a237c	-0.53960395
242	0xbec2a21c	-0.38014305
243	0xbdab28f0	-0.083574176
244	0xbeb46b74	-0.3523823
245	0xbe27f947	-0.16403686
246	0xbf1be3aa	-0.6089426
247	0x3f5ac842	0.8546182
248	0xbe9432f7	-0.28945133
249	0xbe7fdce1	-0.24986602
250	0xbe326c9b	-0.17424242
251	0xbf121b9c	-0.5707338
252	0xbeececcf	-0.4627442
253	0xbe4a82f9	-0.19776525
254	0xbf41dd3f	-0.7572822
255	0x3eeb8702	0.4600144

l1.bias f4 [8]
0	0x3f07d244	0.53055215
1	0x3f8b7bb6	1.0897129
2	0x3f367376	0.7126993
3	0x3f9e98c4	1.239037
4	0x3f8e66a3	1.1125072
5	0x3f15f798	0.58580923
6	0x3f6c8808	0.9239507
7	0x3f442d01	0.7663117

l2.weight f4 [8, 8]
0	0xbe76b2d7	-0.2409166
1	0x3e58eb24	0.21183449
2	0xbe287c34	-0.1645363
3	0xbe9f98cd	-0.31171265
4	0x3d49befb	0.0492544
5	0xbdaa3473	-0.08310785
6	0xbec4b2cb	-0.38417658
7	0xbd83788b	-0.06419476
8	0x3fb9fa78	1.4529562
9	0x3ef1b023	0.47204694
10	0xbfac6e38	-1.3471136
11	0xbeaaa84d	-0.33331528
12	0x3edab82c	0.42718637
13	0x401411b1	2.3135798
14	0x4006217a	2.0957932
15	0xbf36fba1	-0.71477705
16	0xbf996818	-1.1984892
17	0x3ed33620	0.41252232
18	0x3f76bdeb	0.9638354
19	0x3f8d6b0e	1.1048295
20	0x3ec66293	0.3874708
21	0xbf430739	-0.76182896
22	0xbdec9cbf	-0.115533344
23	0xbf5c36d7	-0.8602118
24	0x3fdc9195	1.7231928
25	0x3fa19703	1.262421
26	0x3fadc411	1.357546
27	0x3fc501d6	1.5391185
28	0xbf96d298	-1.1783018
29	0xbe51d3b2	-0.20490912
30	0x3e117ba5	0.14207323
31	0x3f8fdedc	1.1239886
32	0xbfc5399f	-1.540821
33	0x3fb82eb9	1.4389259
34	0xbfbefce8	-1.4920931
35	0x3f9840c1	1.1894761
36	0x3f1c551e	0.6106738
37	0xbebcf975	-0.3690907
38	0x3dc70583	0.09717848
39	0x3f91a593	1.1378654
40	0x3e92d620	0.2867899
41	0x3f505c05	0.8139041
42	0x3f36a242	0.71341336
43	0x3f44f381	0.7693406
44	0xbee58e3b	-0.44835076
45	0x3f84e0c8	1.0381098
46	0x3fbe1988	1.4851542
47	0xbfbf2798	-1.4933958
48	0xbf459316	-0.7717756
49	0x3fa6dd65	1.3036314
50	0xbedcb498	-0.43106532
51	0x3eeb993e	0.46015352
52	0xbf836c2f	-1.026739
53	0xbdbfc576	-0.093638346
54	0xbcc70d0d	-0.024298215
55	0x3fb40807	1.406495
56	0xbd494d6c	-0.0491461
57	0xbf9e7c82	-1.2381747
58	0x3fd3af8e	1.653795
59	0x3feb03dc	1.8360553
60	0x400c160e	2.188846
61	0xbd978a0f	-0.073993795
62	0x3edfb91a	0.4369591
63	0x3fe069ad	1.753225

l2.bias f4 [8]
0	0xbebb3c04	-0.36569226
1	0x3f3e01e3	0.7422163
2	0x3ec41067	0.38293764
3	0x3f4352df	0.76298326
4	0x3f421cc8	0.75825167
5	0x3eeee4b7	0.4665887
6	0x3e35b68d	0.17745419
7	0x3eefe41c	0.4685372

l3.weight f4 [19, 8]
0	0x3e94b3c4	0.290434
1	0x3f0ac274	0.5420296
2	0xbfe702c4	-1.8047719
3	0xbebbf0e8	-0.36707234
4	0x3e0bc98e	0.13651106
5	0x3e4b58b7	0.19858061
6	0x3ee31eda	0.44359475
7	0xc028b68e	-2.6361423
8	0xbe0b87f3	-0.1362608
9	0xbd84e129	-0.064882584
10	0xc046a797	-3.1039789
11	0x3f598a36	0.8497652
12	0xbe72b844	-0.23703104
13	0xbd3b5c1f	-0.04574215
14	0x3daadeb4	0.083432585
15	0xbf8f2ef7	-1.1186208
16	0x3de770f0	0.11300838
17	0x3ee2dac3	0.44307527
18	0xc0379cae	-2.868938
19	0xbf2817c5	-0.6566127
20	0x3f12cb4d	0.5734146
21	0x3e2a1b07	0.16611873
22	0xbfd79daa	-1.684499
23	0xbf31d160	-0.69460106
24	0x3e1bd096	0.15216288
25	0x3e0f6c78	0.14006221
26	0xc034bc9d	-2.824012
27	0x3f32aaa5	0.6979163
28	0xc010595d	-2.2554543
29	0x3dd37cfa	0.10326572
30	0xc025d17a	-2.5909104
31	0xbed94188	-0.4243281
32	0x3cffbb86	0.031217348
33	0x3f0eb60d	0.5574654
34	0xbf88fd81	-1.0702363
35	0xc024669f	-2.5687635
36	0xbf87c0cb	-1.0605711
37	0x3ed26242	0.4109059
38	0xc026a96b	-2.6040905
39	0xbc8b8131	-0.017029377
40	0xbe68b368	-0.22724688
41	0xc013f7a2	-2.3119893
42	0x3f1a4b8e	0.6027154
43	0x3f17213b	0.5903508
44	0x3f1b4f28	0.6066766
45	0xbf6b4813	-0.9190685
46	0x3f656291	0.89603525
47	0xbfc5633f	-1.5420913
48	0xbd75eb2c	-0.06003873
49	0xbf03dca9	-0.51508576
50	0xbeb22a22	-0.3479777
51	0x3f003cb0	0.500926
52	0xbf15ed55	-0.58565265
53	0x3e66dcf3	0.22545223
54	0xbf9bf973	-1.2185501
55	0xbe389bdf	-0.1802821
56	0xbdbb05e1	-0.09131981
57	0xbff9a4fc	-1.9503474
58	0x3f103586	0.5633167
59	0xbddbec03	-0.10738375
60	0x3f296e03	0.6618349
61	0xc01436bc	-2.3158407
62	0xbf51d762	-0.81969273
63	0x3eebd44c	0.46060407
64	0xbe581996	-0.2110351
65	0xbea8710b	-0.32898745
66	0xbef571a3	-0.4793826
67	0x3daa93ae	0.08328949
68	0x3f016aef	0.5055379
69	0xbed36943	-0.41291246
70	0xbef52239	-0.47877672
71	0xbddc5d2f	-0.10759961
72	0x3aaf7ba8	0.0013388293
73	0xbe1f638c	-0.15565318
74	0xc025d04e	-2.590839
75	0xbfb49a1d	-1.4109532
76	0x3f0c2c49	0.54755074
77	0xbfcc1f1b	-1.5946993
78	0xbfce1585	-1.6100317
79	0x3f0dc96c	0.5538547
80	0x3e8aac82	0.27084738
81	0x3f18362a	0.5945765
82	0xc006b3d1	-2.1047251
83	0xbf23f092	-0.64038956
84	0xbfe7063f	-1.8048781
85	0x3ef3a723	0.47588453
86	0xbfe4fbfa	-1.7889397
87	0xbf69c455	-0.91315204
88	0x3db63255	0.08896319
89	0xbeae92c4	-0.34096348
90	0x3f849b84	1.035996
91	0x3e592ecd	0.2120926
92	0x3eb09d66	0.34495085
93	0xbd1b96bf	-0.03798556
94	0x3ec6dd85	0.3884088
95	0xc0066eaf	-2.1005056
96	0xbe749680	-0.23885536
97	0xbfc83000	-1.5639648
98	0xbfb7f19e	-1.4370611
99	0x3f11f3ad	0.57012445
100	0xbed5e153	-0.4177347
101	0xbfbef36d	-1.4918038
102	0xbff3e7b2	-1.9055083
103	0x3f281e38	0.6567111
104	0x3ea14432	0.3149734
105	0x3f133507	0.5750279
106	0xbfcc0d53	-1.5941566
107	0xbf1f5b58	-0.62248755
108	0xbfcf17ae	-1.6179101
109	0xbf253d90	-0.6454706
110	0xc01c63ea	-2.4435983
111	0x3ea3637e	0.31911844
112	0xbeb98045	-0.36230674
113	0x3f1f588b	0.6224448
114	0xbf4bfbc3	-0.7968103
115	0x3f0019c1	0.500393
116	0xbfe648bc	-1.7990947
117	0x3e96e02a	0.294679
118	0xc061f045	-3.53029
119	0xc03491a4	-2.8213892
120	0xbeb88b32	-0.36043698
121	0x3f099d4a	0.5375563
122	0xc04cd26d	-3.2003434
123	0x3f1a48b8	0.6026721
124	0xbff15ee1	-1.885708
125	0x3ed694fe	0.41910547
126	0xbf4c27d1	-0.79748255
127	0xc039cee2	-2.9032521
128	0xbea2c0bc	-0.3178767
129	0xbf9a7a4b	-1.2068571
130	0xc052a98f	-3.291599
131	0x3ea5ce58	0.3238399
132	0x3f3e9473	0.74445266
133	0xbff1f3af	-1.8902491
134	0x3f30a444	0.6900065
135	0xbe0bd693	-0.13656072
136	0x3d9fb4d2	0.077981606
137	0xbec85a11	-0.39131215
138	0x3f034a6a	0.5128542
139	0xbf4ee705	-0.8082126
140	0xbfd66e6a	-1.6752446
141	0x3ddd9aa5	0.10820512
142	0xc034d94f	-2.8257635
143	0x3f1b0a18	0.60562277
144	0x3e3889d0	0.18021321
145	0xc00d2d50	-2.2058907
146	0x3fa26676	1.2687519
147	0x3e38fae3	0.18064456
148	0x3e004750	0.12527204
149	0xbe4c4025	-0.19946344
150	0xc04f0408	-3.234621
151	0x3e102153	0.14075212

l3.bias f4 [19]
0	0xbe60867a	-0.21926299
1	0xbeefacb3	-0.46811447
2	0x3eb41dab	0.35178885
3	0x3e926bf4	0.28597987
4	0xbe250541	-0.16115285
5	0x3dbf531c	0.09342024
6	0x3edc60d6	0.4304263
7	0xbeda7cc6	-0.4267332
8	0xbeb96329	-0.36208466
9	0x3f013a1d	0.504793
10	0xbf257188	-0.6462636
11	0xbd0e8401	-0.034793857
12	0xbc3f83d7	-0.011689148
13	0xbc468420	-0.012116462
14	0x3dfa0ad3	0.12209096
15	0xbe6d4be4	-0.23173481
16	0x3e92f0c2	0.2869931
17	0xbe113db5	-0.14183696
18	0xbc869b7d	-0.016431564
